model.onnx (onnx, 11956 bytes, 3 tensors)

policy.mlp_extractor.policy_net.0.bias f4 [64]
-0.65852 1.1884395 0.4709504 1.0947344 -0.57588094 0.35722145 -0.46716753 -0.2552143
0.1626083 1.3952053 -0.78064245 -1.9749777 -0.6044783 0.10508262 -0.66267544 -0.7865329
-0.6577445 0.012556525 -0.06570765 -0.33405456 -0.20697448 0.5177832 0.562702 -0.81945956
0.19198209 0.800432 0.04967301 -0.25458786 0.87811536 0.89407414 -0.08004701 0.83417886
-0.2850505 0.50679564 -0.020776276 0.6331683 0.5912057 -0.77393377 -0.4019212 0.06919737
-0.8033083 0.109451205 0.65185755 0.20718148 0.44282493 0.18565044 -0.3773836 -0.6676998
0.13077986 0.09571552 -1.9627851 0.37611842 -0.45654842 -0.092293784 1.3235731 -0.27684012
-0.8029631 -0.63405544 -0.5583124 -0.6743054 -0.0800069 -0.34176353 0.040075134 -0.5634761
00000000: c494 28bf c91e 983f 6920 f13e 4220 8c3f
00000010: ef6c 13bf bbe5 b63e 9530 efbe 73ab 82be
00000020: ca82 263e 1696 b23f 2fd8 47bf 12cc fcbf
00000030: 17bf 1abf 8f35 d73d 19a5 29bf 385a 49bf
00000040: f261 28bf e2b9 4d3c bb91 86bd 3309 abbe
00000050: 1ef1 53be 718d 043f 3d0d 103f 1ac8 51bf
00000060: f496 443e 1de9 4c3f ed75 4b3d 5759 82be
00000070: 2bcc 603f 0be2 643f b0ef a3bd bf8c 553f
00000080: 24f2 91be 5cbd 013f 0233 aabc 5117 223f
00000090: 4259 173f 8620 46bf 9ec8 cdbe 5ab7 8d3d
000000a0: 9da5 4dbf f427 e03d 23e0 263f 6227 543e
000000b0: f3b9 e23e 261b 3e3e 6c38 c1be 60ee 2abf
000000c0: 28eb 053e 8006 c43d 8b3c fbbf 9892 c03e
000000d0: b7c0 e9be 8604 bdbd d86a a93f fdbd 8dbe
000000e0: fd8e 4dbf 7551 22bf 90ed 0ebf 479f 2cbf
000000f0: a8da a3bd a1fb aebe d325 243d f83f 10bf

policy.mlp_extractor.policy_net.2.bias f4 [64]
3.188746 3.8470492 -2.9142997 0.18666978 -0.20287861 -0.36370513 -1.5423597 0.44155625
-0.6253072 3.2991188 -1.853487 0.19112451 1.9226203 -0.64280266 -1.6828829 -0.24387921
0.42206892 -0.042626724 -1.0457418 -0.6323668 1.5585526 0.8794526 0.3197619 1.0114708
-2.171078 3.8704028 -2.112348 0.57317066 -2.711793 -0.855761 0.57931167 0.8396413
0.8452287 -0.2936663 -0.53438836 0.26255667 -0.018008178 1.3003681 2.044798 -0.69024605
3.1404877 -2.6480005 -2.1175256 1.9100955 -1.2464361 -1.5718105 -2.6146867 -0.21854964
-3.7168689 0.722663 0.45980078 1.4107581 3.1379197 -2.4943626 -3.381288 -3.4981756
-0.91093504 -0.24314795 0.42603633 2.0089662 1.1881927 0.9007896 -0.10989796 -1.4996705
00000000: 6a14 4c40 0e36 7640 e383 3ac0 5d26 3f3e
00000010: 69bf 4fbe 8f37 babe 0b6c c5bf a913 e23e
00000020: 2214 20bf c324 5340 103f edbf 25b6 433e
00000030: 6c18 f63f b78e 24bf b568 d7bf 79bb 79be
00000040: 6b19 d83e 5c99 2ebd deda 85bf cae2 21bf
00000050: a77e c73f ce23 613f d5b7 a33e e077 813f
00000060: f1f2 0ac0 aeb4 7740 b630 07c0 50bb 123f
00000070: 048e 2dc0 2713 5bbf c54d 143f bbf2 563f
00000080: e860 583f 6e5b 96be adcd 08bf d46d 863e
00000090: e385 93bc 7672 a63f f8dd 0240 f7b3 30bf
000000a0: c0fd 4840 d778 29c0 8a85 07c0 027e f43f
000000b0: 388b 9fbf 1631 c9bf 0757 27c0 7acb 5fbe
000000c0: 2ee1 6dc0 7100 393f 026b eb3e b993 b43f
000000d0: add3 4840 a3a3 1fc0 0667 58c0 1ce2 5fc0
000000e0: 0a33 69bf c7fb 78be 6f21 da3e e792 0040
000000f0: b316 983f 269a 663f 2f12 e1bd 34f5 bfbf

policy.action_net.bias f4 [7]
-2.9730318 3.453519 -6.2881904 8.903928 -1.892974 -1.0030103 -2.6057644
00000000: 2746 3ec0 7506 5d40 db38 c9c0 7d76 0e41
00000010: f94c f2bf a462 80bf d8c4 26c0
